06_customer-churn-prediction/model.pt (torch, 22900 bytes, 6 tensors)

fc1.weight f4 [64, 46]
00000000: 2cd0 953e 03e4 a93d b1f2 4f3d 8871 893c
00000010: 2664 4c3c 6391 43bd 2518 71bd 247f e73d
00000020: cc93 183d b7d9 37bd 6528 90bd 5edc 6abd
00000030: 7a45 a33d 9d44 db3c 48c0 62bc bb56 38bd
00000040: c2c2 833e a8e9 30be 3792 81bd 3e46 053d
00000050: 245d cbbe 5393 733e 723c 9ebd acb5 d33d
00000060: 9fa1 66be 1f3a 7abd 2abd 13bd 9269 3ebe
00000070: 373a 0abe e76b 0fbe bb6e 2f3e 558e 89be
00000080: 1d85 f43d f2c6 883d 1741 39be 76fe c53d
00000090: 7ffc c83c 868d e53d 88a0 b13c 7dd9 f7bd
000000a0: cb0f 563c efee bdbd 0f45 12be db51 9e3e
000000b0: 7913 f6bd fd1a 5c3d 63b8 a23e 9860 37bd
000000c0: afb7 293e 07f6 163e 4f74 40bf 2c85 26be
000000d0: dc5e 3abd 9078 b63d 236d fe3c a65c 083e
000000e0: 0c81 40be 427b cfbd 7467 013e acb9 bc3c
000000f0: 4837 b7bd de88 3fbe 96eb 833e 47e2 76be
00000100: c039 353d 1e65 78bd 3443 03be 06b8 a53d
00000110: 94d3 a6bd 8903 b6bd ca04 913d 996a 553e
00000120: 2953 103e 573a 01bf 412c 72be 1128 eebd
00000130: fcda 07bd 7947 3b3e 616c 543d d61a 5ebe
00000140: 9cde 28be afc3 cfbd 3c76 a23d 6020 fdbe
00000150: bf5a b53d 82be 983d d45e 93bb ec8b c5bd
00000160: 2f81 8f3e a938 05be 63bb 8abd 4e88 c3be
00000170: e281 9c3d 7dfa b63d 6b87 f2bd 1b35 a1bd
00000180: 737d fe3d b4ca 77bd b019 56bd 8616 12be
00000190: b4ed c2bd 172e c23c 54f8 05bc 7930 dbbd
000001a0: 1ebe eebb 9a43 cebd 6617 00be 7848 bcbd
000001b0: d823 04be 4746 d6bd e8eb 163e 9e20 203d
000001c0: 53a0 fd3c 34d1 0cbe f651 c6bd e004 49bd
000001d0: 67b5 493c a17c 10be 5e1b 82bd 5047 b5bd
000001e0: 003a d639 aeb8 60bd 55b7 abbc 4b96 b5bd
000001f0: c043 cfbd 73cf cdbd 96b8 4ebd 0755 eebd
00000200: 502e e73d b4b6 efbc 36e7 013e 9a29 103d
00000210: 24b3 ffbd 9df6 ba3d 912c 27bd 6d05 8bbd
00000220: 26a6 fabd 5419 16be c956 4b3e 3c71 5cbd
00000230: 4ebc 45bd e6fc 8fbe 7395 623e 8582 63bb
00000240: 8bc8 64be ddac 11bd c0b0 193e 0c46 553e
00000250: 4a19 96bd 7022 f2bd 0b0b 053d 7928 fcbd
00000260: 262c 8fbc ddfe 61bd cce6 6d3e d8eb 3ebe
00000270: 247c ae3d e03b 5b3b 5945 4dbd 1ea7 a43d
00000280: ecfe 5b3e f0e9 1e3d b9d4 9cbe 8c04 31be
00000290: 13dc 8b3d e4ec b93c db16 85bd 313c 083e
000002a0: f38f 6f3c ba3f 34be c7bb 8bbd 1bea 0f3e
000002b0: fdca 033d a81e 00bd 1dee 36bd a224 26be
000002c0: 847c d4bd fe34 033e e385 a73e 683b a6be
000002d0: 09c1 963e 302a 0a3d c92c 95bd 1ccc 30be
000002e0: cb96 443d a719 923d ee46 a6bc eb30 4e3d
000002f0: 2aaa 4dbe 4584 653d 0035 3bbe 7d77 ffbd
00000300: a99d d53d ccf7 9e3d ab0c 1bbd 371a 643e
00000310: 4e2b fbbd 30f3 4cbe 301a 953e a277 b13c
00000320: 9c99 cabe e401 28bc bd1b 803d 030a 0f3e
00000330: 41c4 5dbf 6a10 76be 30c9 0dbc a855 46be
00000340: 4c56 e4be 84ea 1fbe b6b5 043d 9a2d 4a3e
00000350: 0ce7 44be 94e2 19be fdee a5bb 27f1 1f3e
00000360: d100 25bd d20e e1be c75e df3d 8331 f1bd
00000370: 5d8d 44be 394b 193d 01be 03be 2675 c8bc
00000380: 9cd7 35bf fc35 003e 64d4 043d 628b eabd
00000390: 4619 583d 617c 33bf c3c2 093e 5ad4 b93d
000003a0: 7cd5 6b3e 7136 e73d afc8 603b 1b02 25bd
000003b0: dcb8 263d 4718 f4be 38fc 4f3b a0b8 dabe
000003c0: 43ab 253e dadc 9f3e 66b0 18be e71f 3abe
000003d0: 7d2b b73e 132b 2bbe ce48 b1be a162 983d
000003e0: e984 463c 5d38 3abd d221 9b3c 0acb 933d
000003f0: ed78 b93d 3a8c 7ebc a66a a3be 2cc2 88be
0.29260385 0.08295443 0.050768558 0.016777769 0.012475049 -0.047746073 -0.058860917 0.11303547
0.037250325 -0.044885363 -0.07038955 -0.057339065 0.07972236 0.026766116 -0.013839789 -0.045004588
0.25734526 -0.17276633 -0.063267164 0.03253769 -0.39719498 0.23786668 -0.07726373 0.103373855
-0.22522591 -0.061090585 -0.036069073 -0.1859496 -0.1349877 -0.14006005 0.17132084 -0.26866403
0.11939452 0.06678571 -0.18091236 0.09667675 0.024534462 0.11208634 0.021682993 -0.121020295
0.013065289 -0.092740886 -0.14284156 0.30921826 -0.12015433 0.053736676 0.317813 -0.044769853
0.16573976 0.1474229 -0.7517747 -0.16261739 -0.04550062 0.08909714 0.0310579 0.13316593
-0.18799227 -0.101309314 0.1263712 0.023037754 -0.08946091 -0.18704554 0.25765675 -0.24109755
0.044244528 -0.060643308 -0.12818605 0.0809174 -0.08145824 -0.08887393 0.070809916 0.20841445
0.14094223 -0.50479645 -0.23649694 -0.11628736 -0.033167824 0.18288983 0.05186117 -0.21689925
-0.16491169 -0.101447456 0.07932708 -0.49438763 0.08855199 0.074582115 -0.0044973884 -0.096458286
0.28028247 -0.13009895 -0.067740224 -0.3818993 0.07641961 0.089344956 -0.11842235 -0.07871457
0.12426271 -0.060496047 -0.05227059 -0.14266405 -0.095179945 0.023703618 -0.008176882 -0.10702605
-0.0072858473 -0.10071488 -0.12508926 -0.0919351 -0.12904298 -0.10462623 0.14738429 0.039093606
0.030960238 -0.1375168 -0.096836016 -0.049076915 0.012311316 -0.14110042 -0.06352876 -0.088514924
0.00040860474 -0.054863624 -0.020961443 -0.08866557 -0.10120344 -0.100493334 -0.050469004 -0.116373114
0.1128813 -0.029261924 0.12685856 0.035195924 -0.1248534 0.09129069 -0.040813986 -0.06788144
-0.122387215 -0.146581 0.19857325 -0.053818926 -0.048275284 -0.28122634 0.22127323 -0.0034715247
-0.22342126 -0.035565246 0.15008831 0.20827502 -0.07329042 -0.11822975 0.032481235 -0.12312407
-0.017477106 -0.055174697 0.23232573 -0.18644655 0.08519772 0.0033452436 -0.050114963 0.080396876
0.21483964 0.03879732 -0.30631045 -0.17286891 0.06829085 0.022695966 -0.064985 0.13304211
0.0146217225 -0.17602435 -0.06822925 0.14054148 0.032176007 -0.031279236 -0.044660676 -0.16224912
-0.10375312 0.12813184 0.32719335 -0.32467198 0.2944415 0.03373164 -0.07283933 -0.17265362
0.04799537 0.07133799 -0.020297494 0.05033962 -0.20084444 0.056034345 -0.18281937 -0.124739625
0.10430462 0.07762107 -0.037853878 0.22275625 -0.12264119 -0.20014644 0.29121542 0.02166349
-0.3957032 -0.010254357 0.06255291 0.13968663 -0.86627585 -0.24029699 -0.008653924 -0.19368613
-0.4459709 -0.15616804 0.032399856 0.19743958 -0.19228762 -0.15027839 -0.00506389 0.15619336
-0.04028398 -0.4395662 0.10906749 -0.11777022 -0.19194551 0.037425254 -0.1286545 -0.024469923
-0.7103212 0.12520593 0.032429114 -0.114523664 0.052758478 -0.7011166 0.13453202 0.09073706
0.23030657 0.11289681 0.0034299304 -0.04028521 0.04070364 -0.47674772 0.0031736027 -0.42718983
0.16178612 0.31223184 -0.1491104 -0.18176232 0.35775366 -0.1671565 -0.34625858 0.07440687
0.012116649 -0.04546391 0.018937025 0.07216461 0.09056268 -0.015536362 -0.31917304 -0.2671064

fc1.bias f4 [64]
00000000: 19b3 423d 25b9 79bc 13d5 b8bc 2abf e43d
00000010: cabd 753b 3424 333d 35b7 a43d b46c 0bbe
00000020: 87c7 233d c5a0 613c 448b f8bd a992 243d
00000030: f413 14be adb7 80bd 1b63 0fbd 687b aabd
00000040: 45c2 ebbd 64fa 09be c799 9e3d 658a 943d
00000050: 672f b2bd 2a80 00be 9e31 1dbd 067d 2cbe
00000060: 2d4c 08be 9529 09be 24a5 b5bb d782 25be
00000070: 9fd1 7abc a5ba eabd e5c5 1ebe a529 16be
00000080: 1112 7cbd 7c30 4cbd 1f90 da3d 21ba 0ebd
00000090: 6196 573d 288a 9abc 202b e63b 51d8 283c
000000a0: cdc9 e4bd 28d8 223c 38d0 67bc 239b 16be
000000b0: 8e13 72bd e021 51be fe60 31be c1b0 50bd
000000c0: a1ce f63c dd20 a4bd d1ba fd3c c4bb 34be
000000d0: 1aa4 00be 6c99 463d 455d 44be b0da d3bd
000000e0: c354 9ebc 4111 313d ed19 85bc f337 44be
000000f0: a429 6ebd fc84 febd ce99 abbd ea40 a13d
0.047534082 -0.015241896 -0.02256254 0.11169274 0.0037497156 0.043735698 0.080427565 -0.13615686
0.039985206 0.013771241 -0.12135938 0.04017893 -0.14460737 -0.062850334 -0.035006624 -0.08324319
-0.11511663 -0.13474423 0.077441745 0.07252959 -0.087004475 -0.1254889 -0.038377397 -0.16844568
-0.13310309 -0.13394769 -0.005543368 -0.16163193 -0.015308767 -0.11461381 -0.15505178 -0.14664324
-0.061540667 -0.049850926 0.1067202 -0.034845475 0.052633647 -0.018864706 0.007024184 0.01030548
-0.11171303 0.009939231 -0.014148764 -0.14707617 -0.05910068 -0.20423079 -0.17322156 -0.050949816
0.030127825 -0.08014081 0.03097287 -0.17649752 -0.125626 0.04848616 -0.19176205 -0.10344446
-0.019327527 0.043229345 -0.016247714 -0.19161968 -0.05814518 -0.124277085 -0.08378945 0.078737095

fc2.weight f4 [32, 64]
00000000: b613 623d e1f4 85bd 098d e3bd 85c2 b33d
00000010: 2d9e d2bd 5712 e83e d342 fc3c 9299 ffbe
00000020: dec7 393d 1bc3 773d 67b1 be3d 6d9d bb3c
00000030: 6279 98be 5c35 ebbd c243 82be 5b66 d03d
00000040: 3874 a5be 0b65 cb3d 8cca c63d 303c bb3c
00000050: 554a efbe b4f0 a3bd db0b d83d 1bf6 0e3d
00000060: 9877 1fbd 3f2e 17be 2c3b 5dbe 715c 9dbe
00000070: ca84 cebc cdb6 5e3e cf03 dfbd fec8 233f
00000080: d2dc 5ebd 417e 693d ee40 053d 2213 e5bd
00000090: 25c6 b7be d597 883b 4834 013e 24e6 ac3e
000000a0: cc91 c6bb 7bb5 d7bd 5f34 633e 88e2 863f
000000b0: fbbf b73e 8dd3 90be 05a1 2b3c af46 913e
000000c0: ee7e f93c fc08 7a3e bc01 413c 3d9b b13d
000000d0: cdc2 ba3e 4bea 0f3e beee 54be 24aa bb3e
000000e0: b107 d4be 9d86 c6be 6a71 b23d 577c 36bc
000000f0: dc2c 8d3e 7a1d 643e a1f0 b7bc 32b2 0f3c
00000100: 1214 15bd 21cb d1bd 9a50 43bd b184 c2bc
00000110: d543 b8bd 30d3 a33e b887 39bc 972f e0bd
00000120: 8cb2 fa3d 1123 db3d 062e 1b3d 3262 dc3c
00000130: d970 8bbe 45f5 d43d defc d63c 581f a43d
00000140: 5518 bcbe 9121 7c3d 8fb0 563c c68e b4bc
00000150: 146c 31bd 89c9 bd3c 29dc 3b3e 2986 013d
00000160: b76d d2bd 96ed 46be 3636 babe cc1d 93be
00000170: 0768 9c3d eb1b 853d 3705 16bf 3b98 173f
00000180: 98f3 4a3d 03ce fb3d 005f 273d e144 6dbe
00000190: 1a33 053d 57c9 833d fac0 173d 7dce e53d
000001a0: 09bd 013e 4dc7 983d 2884 923e 42e8 6e3f
000001b0: 93a4 8c3e eb8b 7abe 099c 9dbd 913b 0d3e
000001c0: f705 843d 2ed8 183e 7c93 353c 2491 953e
000001d0: 5215 fc3e 1886 993d 1cc9 853c cbd0 ea3e
000001e0: 4c35 04bf c93d 86be 1c1e 9c3c 2886 403d
000001f0: 2471 be3e bd8b a43e 6d54 8a3d 77d6 993d
00000200: 5fc3 873d 8ed8 edbd 1820 d63c 4629 043d
00000210: a01e 63be 1426 c73e 154a e5bd 6ca0 cebe
00000220: afb6 6b3d f73f 1e3e 6198 113e 9157 23be
00000230: b61b 1abe 7873 82bc 6dd2 f2be 795a 0d3e
00000240: c109 babe e391 9a3d 4a2d 8a3b 7116 78bd
00000250: 3dd3 05bf df0b 1bbd 7b96 323e 092f 5abd
00000260: dce3 41bc 1aba 9abe b3fb e4be 18be 57be
00000270: 4be2 17be 4427 ab3d 83c4 aebe b322 253f
00000280: 33ad c5bd e360 7a3c b68f 283c 2698 9cbd
00000290: 2c88 d2bd fc4b acbd 8258 c93d 85db 7f3e
000002a0: 7d46 8f3c 00dc 25bd 8c0f a83e 15e7 523f
000002b0: 999a 603e 5f15 ffbe 8e9d 7bbd 9c81 913d
000002c0: 7b12 453c 6a94 a4bb c36e 3f3d f706 833e
000002d0: fa7a 8f3e d7ec cc3d 3bee 63bd 88a2 e93e
000002e0: 4e26 edbe 0c69 03bf a669 f9bc d1ec e33c
000002f0: b852 653e 6f36 113e bf12 613d c9ec bfbc
00000300: 0bae aebe 4549 54bf 0ef5 903d f3d6 2b3e
00000310: b857 89be cf34 0e3e 8c31 b43d 0c24 df3c
00000320: 32c1 a4be c034 45bf 5eaf f2bd 3db3 a7be
00000330: fd4a ff3d 24e6 adbe 4635 3e3e eddf 9dbd
00000340: 7b30 213f da98 05bf 96bb 57bd a8cd d4be
00000350: f197 c13d 90b0 493e e9c3 9dbe ad4a b8be
00000360: bedf 14bf 1df5 59be 884d a6bd f817 2d3c
00000370: a9b8 86be 5ff7 593e 58b8 9c3d 9028 7cbe
00000380: cf7d 52bd 0075 af3e 1300 63be 952c 603e
00000390: 788e b6bc 572c 19bf 9306 aebe d43a f0bd
000003a0: de83 abbe 07e1 99bc f3eb 87be c606 95bd
000003b0: 3f52 7f3e 17cc cc3c 2bfd 3f3d d058 c43c
000003c0: 4904 28be 0434 2c3e e71a 52be 0091 4fbe
000003d0: 6ea7 aabd bd9f 353d e2e7 efbe 0884 0c3e
000003e0: 010a 5a3d d668 a63d 691a adbd 780e 9abe
000003f0: 00df 15bf 0330 b9be 6372 2ebe aa89 e3be
0.05519458 -0.065408476 -0.11110885 0.08777336 -0.10284076 0.45326492 0.030793583 -0.49921852
0.045356624 0.0604888 0.093111806 0.022902215 -0.29780108 -0.11484787 -0.2544232 0.10175773
-0.3231523 0.09931382 0.097066015 0.022855848 -0.46736398 -0.08004895 0.10549136 0.034902673
-0.038932413 -0.14763735 -0.21604604 -0.3073459 -0.025209803 0.2174942 -0.10889398 0.63978565
-0.05440981 0.05700517 0.032532625 -0.1118529 -0.3589336 0.0041684904 0.126176 0.33769333
-0.006059861 -0.105326615 0.22187947 1.0537882 0.35888657 -0.282864 0.010475402 0.2837424
0.030456033 0.2441749 0.011780199 0.086721875 0.36476746 0.1405422 -0.20794198 0.36653244
-0.41412118 -0.38774577 0.08713038 -0.011138043 0.27573287 0.2227687 -0.022453608 0.008770512
-0.036396094 -0.10243822 -0.04768429 -0.023744913 -0.08997313 0.3199706 -0.011323862 -0.10946577
0.12241086 0.10700048 0.03788569 0.026902292 -0.27234533 0.10398344 0.026243623 0.08013791
-0.36737314 0.06155545 0.013103618 -0.022040736 -0.043315962 0.023167389 0.18345703 0.031622086
-0.10274833 -0.1942657 -0.36369485 -0.2873367 0.07637029 0.064994656 -0.5860171 0.5921666
0.049548715 0.12295153 0.040862083 -0.23170806 0.032519437 0.06434887 0.03704927 0.11221025
0.12669767 0.074598886 0.28616452 0.9332315 0.2746931 -0.24467437 -0.07695777 0.13792254
0.0644645 0.14926216 0.011082526 0.29212296 0.49235016 0.074962795 0.016331248 0.4586242
-0.51643825 -0.26219013 0.019057326 0.04700294 0.37195694 0.32137862 0.06754384 0.07511609
0.06629061 -0.1161357 0.02613835 0.032265924 -0.22179651 0.3889624 -0.11195771 -0.40356767
0.057547268 0.15454088 0.14218284 -0.15951373 -0.15049633 -0.0159242 -0.47426167 0.13804044
-0.36335567 0.07547357 0.0042168247 -0.060568277 -0.5227545 -0.037853118 0.17440216 -0.053267512
-0.011834111 -0.3022011 -0.4472328 -0.21068609 -0.14832418 0.08357099 -0.34134302 0.6450607
-0.09652176 0.015281889 0.01028817 -0.076462075 -0.10279879 -0.0841293 0.09831335 0.24986084
0.017489666 -0.04049301 0.3282436 0.82383853 0.21933974 -0.49820992 -0.061429553 0.07104799
0.012028332 -0.005022575 0.04673649 0.2559125 0.2802351 0.10006111 -0.055647116 0.45631814
-0.46318287 -0.51332164 -0.030445885 0.027822884 0.22394836 0.14180921 0.05494952 -0.023428338
-0.3411716 -0.829243 0.070779905 0.16781215 -0.26824737 0.13887332 0.08798513 0.027238868
-0.32178646 -0.77033615 -0.11849855 -0.32753935 0.12465475 -0.33964646 0.1857501 -0.07708726
0.629646 -0.5218636 -0.05266913 -0.41563153 0.09452809 0.1969626 -0.3081353 -0.35994473
-0.58153903 -0.2128491 -0.08120257 0.010564797 -0.2631276 0.21285771 0.07652348 -0.24624848
-0.05138951 0.3426895 -0.22167997 0.21892007 -0.022284731 -0.5983328 -0.3398939 -0.117299706
-0.33499044 -0.01878406 -0.26547202 -0.072766826 0.24933718 0.024999661 0.0468723 0.02396813
-0.16407885 0.16816717 -0.20518075 -0.20270157 -0.08332716 0.04434179 -0.468566 0.13722241
0.053232197 0.081254646 -0.08452303 -0.30089164 -0.58543396 -0.36169443 -0.17035823 -0.44440967

fc2.bias f4 [32]
00000000: 2316 f73c caff a63d eb00 9b3d 39ce 093e
00000010: 6848 233d 5cbf c13d e006 28ba b29c bf3d
00000020: 679a bc3d aab7 193e cfc1 ec3d dd38 6d3d
00000030: 62a2 383e a4d3 703d 9850 1c3e 1498 543c
00000040: ec63 973d 094c 9f3d 5b7c 3d3e a5b5 443e
00000050: 7d4b 413e c447 043e 3bce 553e a9e6 783d
00000060: a470 ba3d f9d1 a03d ed10 0d3e ac5c 6a3e
00000070: 9a7b 853d 9f02 be3d 4276 1b3e 0c48 4d3d
0.030161923 0.08154257 0.075685345 0.13457574 0.039863974 0.09460327 -0.0006409716 0.09356059
0.092091374 0.15011469 0.115604036 0.057915557 0.18030694 0.058795586 0.15265119 0.012975711
0.073921055 0.077781744 0.18504469 0.19209917 0.18876453 0.12918001 0.20879452 0.06076685
0.09103516 0.07852549 0.13775988 0.22886914 0.06517716 0.09277844 0.1518183 0.050117537

fc3.weight f4 [2, 32]
00000000: cb21 853e a01a f3bb 90b3 9e3e 0e5b 25bf
00000010: 025e 8b3e 99ec 873e 986e 883d d47f a63e
00000020: 056c 753d 840e ebbe cb9a 873e 3a5f 2b3d
00000030: ab0a f2be 339a 413e c531 c7be 77f8 803e
00000040: 1503 8e3e 64cc 793e 61d8 9cbe 17ad a6be
00000050: 7130 b8be 85fa a53e 7f74 03bf bcf2 b43e
00000060: fe34 8f3e 940f 103e 5e69 c4be 879e cdbe
00000070: 9bb2 6d3e 4e50 823e b402 07bf ddef 253e
00000080: a7bd 6dbe 267c 90be 726c babe 5035 fb3e
00000090: 45de 43bc a485 93be 08dc 8cbd c24e 61bd
000000a0: b777 93be 5195 e83e 4a87 b9bd 534a 7ebe
000000b0: 14bf cb3e 9cc4 a7be 5e84 033f b23c 6cbd
000000c0: 8ebf 85bd 1d70 f2bc a9a3 f53e 3ea2 0b3f
000000d0: 75e3 df3e 09b2 dcbe 1f59 2e3f f12c 3cbe
000000e0: 8845 80be 47a1 65be 6aa4 1d3f 14bb e63e
000000f0: fc9f 28bd c6c9 c3bd 1106 123f be55 88be
0.26002344 -0.0074189454 0.3099637 -0.64592063 0.2722016 0.26547697 0.06661719 0.325194
0.05991747 -0.45909512 0.26485285 0.041838862 -0.47273764 0.18906479 -0.3890516 0.25189564
0.27736726 0.24394375 -0.30633834 -0.32553932 -0.35974458 0.32417694 -0.51349634 0.35341442
0.27970117 0.14068443 -0.3836164 -0.4016001 0.23212664 0.25451893 -0.527385 0.16204782
-0.23216878 -0.28219718 -0.36410862 0.49064112 -0.011954849 -0.28812897 -0.06877905 -0.05500675
-0.28802273 0.4542642 -0.090590075 -0.2483304 0.3979422 -0.3276719 0.5137385 -0.05767507
-0.06530677 -0.029594475 0.47976425 0.54544437 0.43728223 -0.4310458 0.6810474 -0.18376519
-0.25053048 -0.22424804 0.61579 0.45064604 -0.041168198 -0.095599696 0.57040507 -0.26627916

fc3.bias f4 [2]
00000000: a549 983e 113d 5abe
0.29743686 -0.21312357
