7_stock-price-predictor/model.pt (torch, 127452 bytes, 9 tensors)

lstm.weight_ih_l0 f4 [200, 1]
0.19888355 -0.156441 0.094941445 0.19952904 0.08480388 0.034549467 -0.14129171 0.010475955
0.11301306 0.05026621 -0.14727584 0.12966496 0.16098274 0.0043926383 0.11320608 0.024082659
0.16337748 0.1816464 0.19586189 0.035735525 -0.1760454 -0.07634146 -0.024571666 -0.114714794
-0.11602954 0.161217 0.10919848 0.011455759 0.09873676 0.0737491 0.17940578 -0.02063854
0.0010044235 0.15465757 0.018935954 0.087512195 -0.16588825 0.10937038 0.04804608 -0.07712693
-0.06098409 0.21005271 0.041823905 0.011905219 -0.0697282 -0.12640862 0.13949622 0.045765117
-0.03657614 0.0020797735 0.15384537 -0.17123502 -0.03564869 0.19337481 0.19223481 0.080412135
0.029134024 0.16232195 -0.019126195 0.24483524 0.054494634 0.079250604 0.027746547 0.060326252
-0.017336056 0.11471665 0.04312058 0.17547557 0.064293794 0.05024115 -0.09875849 0.047851656
-0.01948056 0.07123999 -0.03531554 -0.078925 -0.072048806 0.124518745 0.15011716 0.11903338
-0.06778792 0.008987284 -0.011293324 0.061813567 0.08609945 -0.037887633 -0.21840385 0.19446881
0.14540687 -0.016479934 0.06478821 0.10517981 0.16840714 0.1328793 0.10058732 -0.053045098
0.171696 -0.069674134 -0.07740957 0.06640849 0.1179972 -0.16960101 -0.12193256 0.20265906
0.17316306 -0.18155824 0.19615948 0.10812188 0.08063243 0.21383522 0.11028755 -0.08661132
0.035867676 0.028780766 -0.19057864 0.16994889 0.05071251 -0.19968992 -0.13626432 -0.20683502
0.12511468 0.16950691 -0.1600991 -0.094862044 0.19031449 -0.22507218 -0.075601056 0.079468444
0.13397808 0.049743146 -0.2155947 -0.22412331 0.027350591 -0.121590294 0.049419962 -0.14356232
0.16008659 0.06955042 -0.14984822 -0.07590571 0.16946544 0.11293785 0.12204577 0.16348131
-0.12310012 0.05870714 0.25227895 -0.13010845 0.09783233 -0.03171 0.1225576 0.05354251
-0.1438581 0.22518402 0.06697456 -0.045777787 0.013807602 0.025615586 0.10632485 0.22678195
0.13149153 0.14105771 -0.06513894 0.08164546 0.121068075 0.11715137 0.15073703 0.00092504726
-0.012708686 0.053446215 -0.22626272 -0.071860164 0.1007908 0.0973088 0.17074083 0.16863036
0.12371933 0.107597776 0.04815011 -0.013363808 0.09162789 0.10272213 -0.049897887 0.053043928
0.07690867 0.09369418 0.05821953 0.041563433 0.05823508 0.1211068 -0.079996884 0.1792647
0.104366034 -0.0034557017 0.057581216 -0.002649455 0.14506388 -0.13491306 0.11216842 0.050209615
00000000: 21a8 4b3e 1232 20be a970 c23d 5751 4c3e
00000010: a8ad ad3d be83 0d3d c6ae 10be 57a3 2b3c
00000020: 6473 e73d f1e3 4d3d 7acf 16be e4c6 043e
00000030: a9d8 243e 1ff0 8f3b 97d8 e73d ff48 c53c
00000040: 6d4c 273e 8401 3a3e 0590 483e 6a5f 123d
00000050: 3f45 34be e958 9cbd 854a c9bc 97ef eabd
00000060: e5a0 edbd 1216 253e 74a3 df3d f0b0 3b3c
00000070: 8036 ca3d c509 973d 26b6 373e 2812 a9bc
00000080: dca6 833a 8e5e 1e3e 931f 9b3c 9839 b33d
00000090: 9cde 29be 94fd df3d f7cb 443d b9f4 9dbd
000000a0: 74ca 79bd 0f18 573e 8b4f 2b3d 1c0e 433c
000000b0: a9cd 8ebd 4371 01be 19d8 0e3e 3474 3b3d
000000c0: ddd0 15bd cf4c 083b a489 1d3e 3c58 2fbe
000000d0: 5c04 12bd 0c04 463e 34d9 443e 1eaf a43d
000000e0: 7aaa ee3c ba37 263e 8aae 9cbc 17b6 7a3e
000000f0: c435 5f3d 244e a23d ba4c e33c a918 773d
00000100: 5804 8ebc 90f0 ea3d 359f 303d deaf 333e
00000110: 77ac 833d aac9 4d3d e441 cabd 1900 443d
00000120: b295 9fbc 46e6 913d 07a7 10bd 6ea3 a1bd
00000130: 538e 93bd af03 ff3d 50b8 193e c6c7 f33d
00000140: 65d4 8abd 673f 133c a207 39bc 3930 7d3d
00000150: e954 b03d 1030 1bbd 42a5 5fbe d522 473e
00000160: 8ae5 143e ed00 87bc aeaf 843d 8368 d73d
00000170: ec72 2c3e 8311 083e ba00 ce3d d145 59bd
00000180: 14d1 2f3e 50b1 8ebd e988 9ebd 2d01 883d
00000190: 84a8 f13d e3ab 2dbe c7b7 f9bd db85 4f3e
000001a0: a851 313e 67ea 39be 08de 483e 016f dd3d
000001b0: 9e22 a53d 9ff7 5a3e 70de e13d 4761 b1bd
000001c0: fce9 123d a4c5 eb3c 0c27 43be 1507 2e3e
000001d0: ecb7 4f3d 847b 4cbe e088 0bbe 8fcc 53be
000001e0: 101e 003e 3893 2d3e 05f1 23be 0847 c2bd
000001f0: cde1 423e 5279 66be bad4 9abd 5ac0 a23d
00000200: 8d31 093e 78bf 4b3d dbc4 5cbe 9580 65be
00000210: 590e e03c 5504 f9bd 966c 4a3d 0002 13be
00000220: bded 233e 7370 8e3d d071 19be 7474 9bbd
00000230: 5988 2d3e f64b e73d 22f3 f93d a567 273e
00000240: ea1b fcbd e676 703d b52a 813e 263b 05be
00000250: 515c c83d 58e2 01bd 7bff fa3d 644f 5b3d
00000260: 8a4f 13be a496 663e f529 893d 7d81 3bbd
00000270: 4839 623c c7d7 d13c d8c0 d93d 8739 683e
00000280: b7a5 063e 6f71 103e 9167 85bd bc35 a73d
00000290: 8af2 f73d 0fed ef3d cf5a 1a3e df7e 723a
000002a0: 1838 50bc 6bea 5a3d 6ab1 67be 6c2b 93bd
000002b0: 686b ce3d d649 c73d afd6 2e3e 70ad 2c3e
000002c0: 8f60 fd3d 395c dc3d 0d39 453d e0f3 5abc
000002d0: 67a7 bb3d fb5f d23d ba61 4cbd 9744 593d
000002e0: 4b82 9d3d bce2 bf3d 9a77 6e3d 6b3e 2a3d
000002f0: e887 6e3d d806 f83d 68d5 a3bd 2a91 373e
00000300: dcbd d53d 0e79 62bb 48da 6b3d 7ba2 2dbb
00000310: a08b 143e a626 0abe 8eb8 e53d 99a8 4d3d

lstm.weight_hh_l0 f4 [200, 50]
0.028706176 0.03698746 0.0084391 0.027717812 0.00026129588 0.08340153 0.101858504 -0.024289869
-0.09384509 -0.069700174 0.0044534523 -0.13708541 -0.10537373 0.0014956626 0.054728057 0.016492506
-0.052572545 -0.10721057 -0.03729884 -0.03829778 0.05545221 0.08256693 0.015274563 0.0904996
0.021006424 0.12167764 0.015719462 0.120536216 0.0368678 0.11372947 0.0907581 0.038316995
-0.07069645 0.014657993 -0.09826988 -0.07877968 0.09659351 -0.120009005 -0.06730358 -0.13213237
-0.08517508 0.05818691 0.12437083 0.04851329 -0.12764238 0.04862493 0.084490545 0.09757452
0.0671912 -0.056335315 -0.13795702 0.076704435 0.03802951 0.12943925 0.067897156 -0.046974517
0.003655614 -0.07943459 -0.115347475 -0.040643975 -0.11828575 -0.062603764 -0.026496172 0.014482109
-0.01708134 0.034893215 -0.03782369 -0.014946524 -0.08070954 0.05394068 0.019290177 0.0018350855
0.021151958 -0.002300779 -0.09206598 0.08505921 0.060259696 -0.06844654 0.04018838 -0.12647954
0.07306533 0.06656347 0.10631099 0.14743437 0.08845797 -0.017065493 -0.044900987 -0.15236904
0.10504534 0.14810269 0.0019210428 -0.11870856 -0.04023455 -0.046563182 0.00025913288 -0.029371394
-0.0061377767 -0.05021393 -0.05639331 0.08060633 0.15170003 -0.11570781 -0.09951702 -0.08636058
-0.095139384 -0.14660105 0.12015394 0.13343786 0.11495407 0.03281578 0.120719135 -0.13002516
0.056982074 0.03979905 0.06454785 0.14945786 -0.065571494 -0.12191639 -0.06464228 0.12291919
-0.14968827 0.006709787 -0.07029659 -0.014359806 -0.10787942 -0.06149474 -0.08097232 0.15575822
0.14172089 0.05823315 0.0035378784 -0.05061825 -0.00081629603 0.06099006 -0.03203819 0.091512196
-0.13634327 0.124327436 -0.08639138 -0.07301906 0.13983011 0.026694681 0.13086236 -0.009153983
0.080393724 0.06741346 0.12695622 0.010930387 0.11562269 -0.055521052 -0.08417964 0.15173711
-0.04869547 0.17439541 -0.104483925 0.05679305 -0.032489832 0.15870048 -0.15115967 0.09540994
0.0803191 0.014665837 -0.010211761 0.002007984 0.021995 0.15158193 0.1298847 -0.06639387
-0.0073641823 -0.020914419 -0.12403351 -0.06794181 -0.086155556 -0.029519724 0.11319241 0.037586544
-0.06650358 0.09511156 -0.0431555 0.17351072 -0.16675521 0.001837539 -0.027274465 0.097210124
0.14137377 -0.0002939325 -0.018624658 0.007213941 -0.15515442 0.08927741 -0.013117327 -0.03490434
-0.0019430893 -0.10649522 -0.1682087 -0.01600835 -0.08711581 0.118034534 -0.10897873 -0.10663591
0.10660679 0.16397972 0.1767365 0.1902583 0.119031444 -0.13287698 0.06058827 0.023699677
-0.0435236 0.02702716 -0.0044765878 -0.013369752 0.09160885 0.0973901 -0.056100864 -0.051666066
0.13598378 -0.062041465 -0.030984705 0.03571336 -0.2370395 0.020794159 -0.061460286 0.1488131
-0.020254444 -0.0031243616 0.11854002 0.06394781 -0.02810826 0.051942807 -0.14836453 -0.0075548682
-0.01333927 0.02787809 -0.011565157 0.08931269 0.059380807 -0.05496127 0.038944814 0.09232383
0.12923734 -0.067944065 0.07001745 0.09609531 0.078518786 -0.07990826 -0.019269418 0.05574205
-0.041339505 0.04314805 0.08033349 0.11065552 -0.09776708 0.09946776 -0.010975642 -0.01721857
00000000: 3729 eb3c 2a80 173d 2744 0a3c 7710 e33c
00000010: 8afe 8839 6cce aa3d 319b d03d 8cfb c6bc
00000020: db31 c0bd f7be 8ebd 44ee 913b 1e60 0cbe
00000030: 2fce d7bd 1c0a c43a 872a 603d 4b1b 873c
00000040: 4f56 57bd 3791 dbbd abc6 18bd 22de 1cbd
00000050: db21 633d da18 a93d 2942 7a3c db57 b93d
00000060: aa15 ac3c 2032 f93d 1ac6 803c b1db f63d
00000070: b102 173d ffea e83d 62df b93d 48f2 1c3d
00000080: 4dc9 90bd 1428 703c b841 c9bd 3e57 a1bd
00000090: d1d2 c53d 48c7 f5bd 76d6 89bd b54d 07be
000000a0: 4670 aebd 6655 6e3d 22b6 fe3d dfb5 463d
000000b0: afb4 02be ef2a 473d 6109 ad3d 26d5 c73d
000000c0: 8a9b 893d dcbf 66bd 9b44 0dbe 3717 9d3d
000000d0: d5c4 1b3d b98b 043e aa0d 8b3d 5a68 40bd
000000e0: 0793 6f3b 9aae a2bd 4c3b ecbd 4c7a 26bd
000000f0: cd3f f2bd 6736 80bd 800e d9bc 5e46 6d3c
00000100: 2bee 8bbc 30ec 0e3d 03ed 1abd 44e2 74bc
00000110: 0b4b a5bd e7f0 5c3d 6f06 9e3c 4087 f03a
00000120: df46 ad3c abc8 16bb 178d bcbd 8633 ae3d
00000130: dfd2 763d b32d 8cbd 929c 243d da83 01be
00000140: 47a3 953d 6e52 883d 94b9 d93d 09f9 163e
00000150: 7429 b53d efcc 8bbc 19ea 37bd a106 1cbe
00000160: 0322 d73d 3ba8 173e 80cb fb3a 791d f3bd
00000170: fccc 24bd 09b9 3ebd 3adc 8739 479c f0bc
00000180: 671f c9bb 1fad 4dbd acfc 66bd ee14 a53d
00000190: 4157 1b3e 37f8 ecbd 94cf cbbd d1dd b0bd
000001a0: 70d8 c2bd 961e 16be 4513 f63d efa3 083e
000001b0: 0a6d eb3d d769 063d 983b f73d 5125 05be
000001c0: 0966 693d 5404 233d aa31 843d 7b0b 193e
000001d0: 594a 86bd 4daf f9bd 2c63 84bd 0ebd fb3d
000001e0: e247 19be c6dd db3b a9f7 8fbd 6445 6bbc
000001f0: e3ef dcbd e9e1 7bbd d1d4 a5bd 157f 1f3e
00000200: 481f 113e e285 6e3d c0db 673b 1555 4fbd
00000210: b3fc 55ba b7d0 793d 7a3a 03bd bf6a bb3d
00000220: 929d 0bbe 629f fe3d f7ed b0bd 048b 95bd
00000230: a02f 0f3e ceae da3c c800 063e 96fa 15bc
00000240: 77a5 a43d 1110 8a3d d000 023e 5e15 333c
00000250: 97cb ec3d 0b6a 63bd 6066 acbd f960 1b3e
00000260: e774 47bd b694 323e abfb d5bd d49f 683d
00000270: 0f14 05bd 6182 223e 9ac9 1abe 4966 c33d
00000280: 577e a43d fb48 703c 3b4f 27bc 6298 033b
00000290: dc2e b43c 4b38 1b3e 7f00 053e 82f9 87bd
000002a0: 3d4f f1bb b754 abbc 4805 febd 1325 8bbd
000002b0: 5372 b0bd 59d3 f1bc 6cd1 e73d 59f4 193d
000002c0: 0733 88bd d9c9 c23d d2c3 30bd cbac 313e
000002d0: e1c1 2abe 94d9 f03a b36e dfbc 1a16 c73d
000002e0: 49c4 103e f41a 9ab9 bd92 98bc ec62 ec3b
000002f0: cde0 1ebe 13d7 b63d 0fea 56bc daf7 0ebd
00000300: 42af feba 2a1a dabd e73e 2cbe f123 83bc
00000310: c669 b2bd 17bc f13d 3e30 dfbd ee63 dabd
00000320: a954 da3d 4dea 273e 6afa 343e 12d3 423e
00000330: c2c6 f33d e710 08be 682b 783d d325 c23c
00000340: cd45 32bd 1068 dd3c 57b0 92bb ce0c 5bbc
00000350: 6c9d bb3d 7674 c73d 05ca 65bd cc9f 53bd
00000360: 553f 0b3e 311f 7ebd a3d3 fdbc 2c48 123d
00000370: 7cba 72be 8358 aa3c c8bd 7bbd 7662 183e
00000380: a6ec a5bc 17c2 4cbb 1cc5 f23d 12f7 823d
00000390: 4b43 e6bc fbc1 543d dfec 17be d48e f7bb
000003a0: f48c 5abc 9860 e43c c97b 3dbc 92e9 b63d
000003b0: 4a39 733d 121f 61bd 9984 1f3d 4714 bd3d
000003c0: cb56 043e 4226 8bbd 4f65 8f3d 9ecd c43d
000003d0: 75ce a03d f1a6 a3bd e6da 9dbc c751 643d
000003e0: 9d53 29bd 02bc 303d e385 a43d 5c9f e23d
000003f0: 1b3a c8bd c1b5 cb3d 2ed3 33bc f50d 8dbc

lstm.bias_ih_l0 f4 [200]
-0.017190266 0.04348617 -0.0067578554 -0.03500756 0.1943367 -0.041081272 0.13769054 0.041860543
-0.074046895 0.09032658 0.05503991 0.028658414 -0.057077028 -0.021056434 0.11163079 0.060251374
0.010167566 0.19127509 0.12257957 0.009820804 -0.033656698 -0.033818457 -0.016666753 -0.021612167
0.19081764 0.085231155 -0.11600266 0.11089422 0.0598598 0.11286426 0.050526746 0.18817253
0.0023381116 0.07526633 0.058513075 0.12537865 -0.10149281 -0.027243668 0.16385956 -0.0065158303
0.12272282 0.13519645 -0.13275608 -0.0618137 0.014518775 -0.02563582 -0.07599235 -0.06659537
0.18744785 0.11838703 0.12977572 -0.14778778 -0.087284885 0.15376776 -0.072556525 -0.028076231
-0.037426718 -0.009933355 0.0078003327 -0.023678357 0.14099622 0.062914774 -0.04582085 0.04841289
0.1422103 0.074081555 0.103026256 -0.010586076 0.07426559 0.068782926 0.102535166 -0.12020795
0.0209438 -0.14744188 0.12844414 0.16390888 0.056472793 0.10641546 0.0059633353 -0.1350224
0.10400316 0.095436946 -0.025113441 0.128478 0.048591767 -0.1553354 0.0119746765 0.13462263
-0.04122104 0.10063416 0.04224024 -0.059551276 -0.01881101 -0.1326483 0.09160309 0.09209329
-0.057524376 -0.119759105 0.11274111 -0.095774196 0.010564818 0.064009085 0.04442494 0.03721892
-0.08207111 -0.05971046 -0.050947595 0.06293175 -0.06593014 0.10578345 -0.10432569 -0.10539596
0.09908589 0.04896896 0.0857023 0.048319772 0.076767884 -0.05908403 0.0032031871 0.030836765
-0.109206595 0.092944086 0.10822101 0.13061203 -0.09042129 0.11307999 0.1302257 0.06369082
0.13623765 0.09822985 0.034349624 -0.083988175 -0.07371492 0.085867986 -0.021387609 -0.039048936
-0.044234015 -0.0362868 0.09348095 0.005750371 -0.09957528 -0.11258317 0.0898778 0.093558766
0.045701087 -0.11012596 -0.099659234 0.06051302 0.023251684 -0.061761666 -0.093594566 0.11549628
-0.027297169 0.13691916 -0.03180119 -0.07489722 0.13159838 0.09971609 0.068700895 -0.07570364
0.012309751 -0.11223353 0.0080587715 -0.0073905718 -0.022310995 0.13472234 0.007463929 0.020781392
-0.08878217 0.15128326 0.057090864 0.11345555 -0.07388183 -0.11442438 -0.0705683 0.13869506
-0.07777268 0.09035115 0.022119865 -0.13771477 -0.06920677 -0.07964495 -0.09287034 0.10576515
-0.11121067 -0.06303352 0.0017351214 0.0588656 0.095210224 0.031063356 0.07645592 0.040583353
0.10030548 0.03328105 0.08865411 -0.019955628 0.027839513 0.0025696887 0.18697156 -0.0249376
00000000: 9ad2 8cbc 8e1e 323d 0071 ddbb 1664 0fbd
00000010: 3300 473e d644 28bd c0fe 0c3e f675 2b3d
00000020: e6a5 97bd 24fd b83d 8771 613d 0dc5 ea3c
00000030: 9ac9 69bd 8b7e acbc af9e e43d 25ca 763d
00000040: dd95 263c 9edd 433e ff0a fb3d 70e7 203c
00000050: 9bdb 09bd 3985 0abd b788 88bc 000c b1bc
00000060: b365 433e ac8d ae3d cd92 edbd 821c e33d
00000070: 8d2f 753d 6125 e73d 22f5 4e3d 4db0 403e
00000080: 013b 193b 3c25 9a3d 68ab 6f3d 4363 003e
00000090: 76db cfbd 1d2e dfbc cdca 273e bf82 d5bb
000000a0: 1a56 fb3d f070 0a3e 36f1 07be 5d30 7dbd
000000b0: 28e0 6d3c 3602 d2bc e1a1 9bbd 2763 88bd
000000c0: 54f2 3f3e e674 f23d ede3 043e ae55 17be
000000d0: 6bc2 b2bd 4c75 1d3e 8498 94bd 2000 e6bc
000000e0: c24c 19bd 83bf 22bc ef99 ff3b 1df9 c1bc
000000f0: 5061 103e 76d9 803d a5ae 3bbd 984c 463d
00000100: 949f 113e 12b8 973d 6eff d23d 3971 2dbc
00000110: 8f18 983d 10de 8c3d f5fd d13d 962f f6bd
00000120: 5592 ab3c 01fb 16be dc86 033e bbd7 273e
00000130: 0450 673d 59f0 d93d 1568 c33b 5043 0abe
00000140: 9cff d43d 7274 c33d b4ba cdbc bd8f 033e
00000150: 2908 473d 3e10 1fbe 6f31 443c 84da 093e
00000160: 65d7 28bd 4819 ce3d 1a04 2d3d 0aec 73bd
00000170: 8c19 9abc f5d4 07be 679a bb3d 689b bc3d
00000180: ae9e 6bbd 4344 f5bd d0e4 e63d 4325 c4bd
00000190: 0f18 2d3c 3217 833d edf6 353d de72 183d
000001a0: e614 a8bd f592 74bd 6dae 50bd 5de2 803d
000001b0: 6206 87bd fea4 d83d b5a8 d5bd d6d9 d7bd
000001c0: 8bed ca3d ad93 483d b084 af3d f4ea 453d
000001d0: 7b38 9d3d 1902 72bd 90ec 513b 629d fc3c
000001e0: b5a7 dfbd 7859 be3d faa2 dd3d 29bf 053e
000001f0: cc2e b9bd 7b96 e73d e359 053e 5570 823d
00000200: e281 0b3e bb2c c93d 31b2 0c3d fe01 acbd
00000210: d9f7 96bd 8edb af3d 1135 afbc c7f1 1fbd
00000220: ba2e 35bd 78a1 14bd f172 bf3d 9c6d bc3b
00000230: 20ee cbbd 0192 e6bd da11 b83d bd9b bf3d
00000240: 1031 3b3d b889 e1bd 241a ccbd 80dc 773d
00000250: 517a be3c cdf9 7cbd 82ae bfbd 5089 ec3d
00000260: 509e dfbc 8934 0c3e f741 02bd b763 99bd
00000270: bac1 063e f337 cc3d 0eb3 8c3d 830a 9bbd
00000280: d6ae 493c b1da e5bd f008 043c 9c2c f2bb
00000290: 8cc5 b6bc a7f4 093e f993 f43b bd3d aa3c
000002a0: 6dd3 b5bd 00ea 1a3e 1cd8 693d 625b e83d
000002b0: 5b4f 97bd 5457 eabd 1d86 90bd 1406 0e3e
000002c0: 4847 9fbd 060a b93d b834 b53c 1a05 0dbe
000002d0: 47bc 8dbd e41c a3bd ce32 bebd 669b d83d
000002e0: 6bc2 e3bd b817 81bd 036d e33a 0e1d 713d
000002f0: 94fd c23d 9478 fe3c ec94 9c3d bb3a 263d
00000300: f66c cd3d b651 083d 4990 b53d fc79 a3bc
00000310: b10f e43c 3968 283b 7975 3f3e f049 ccbc

lstm.bias_hh_l0 f4 [200]
0.1261395 0.04213164 0.15963197 0.02086093 0.03186741 0.15161291 -0.072777465 0.14031772
0.1292101 0.05768268 0.013829896 0.05136948 -0.011343248 0.051148698 -0.030478846 0.1074039
-0.12454786 0.057420228 0.123716496 0.0022823783 -0.09799574 -0.104483694 -0.055668194 0.029612783
0.014139932 0.075391844 -0.0623149 -0.098509565 -0.020356165 -0.024968565 0.1806046 -0.019537635
-0.110999174 0.1687766 0.11510456 0.040885583 0.13111739 -0.033850417 0.04388876 -0.0577745
-0.058606505 0.18333492 0.0470962 -0.12832947 -0.078393705 0.10341678 0.03096486 -0.0759405
0.016164817 0.004487621 0.048285827 -0.06448859 -0.0334143 0.09028855 0.04586517 -0.05716367
0.027627777 0.0879661 0.04488408 0.11546312 0.14626336 0.0079194065 -0.005371381 -0.09944596
-0.047017906 -0.09834759 -0.10627131 0.09035686 -0.016642699 -0.006691596 -0.04382284 -0.008093417
-0.062371563 -0.06530482 -0.011378865 0.06888189 -0.09982108 -0.06519336 -0.006392282 -0.040950466
0.08059873 -0.09033202 0.07202541 0.12346724 -0.029637104 -0.10959355 -0.071013406 0.0414056
0.0029915022 -0.110159025 -0.017624162 -0.0842523 0.124566466 0.035901338 0.078766085 -0.01824829
0.06401744 0.08685986 -0.02782356 -0.008949132 -0.015344598 0.07813892 0.05034082 0.017867671
0.0075327605 0.042807046 -0.04576421 0.08158622 -0.06542799 0.024061462 0.0912536 -0.019338874
-0.03693577 0.04352214 -0.130401 -0.063932136 0.08663858 0.045347814 -0.043767855 0.088910185
-0.09959789 -0.10899131 -0.12946044 0.10508458 0.028483842 -6.3724074e-05 -0.095732756 0.0978451
-0.1216348 0.0061533293 -0.13605393 -0.042640302 0.06844061 -0.07962169 0.13599952 0.10936394
-0.07191434 0.12119303 -0.13125399 -0.082983874 0.020810684 0.09974327 0.03935673 0.03127303
-0.10192162 -0.11801484 0.13085993 -0.006047886 -0.005597396 0.10199143 -0.08756537 0.14645827
-0.09791143 -0.0494451 0.15462719 -0.030723438 0.192393 -0.05015082 -0.006921015 0.1322636
0.074423224 0.0566848 0.07557215 0.054071542 0.098771304 0.03229664 0.0757282 0.117224865
0.09997997 0.19860315 0.0656617 0.02353418 0.073443644 -0.16378815 0.012204489 0.19562282
0.078155234 0.08177151 0.08061833 -0.06774304 0.12640727 0.18320578 -0.00040869357 -0.07714014
-0.0038053798 -0.023765687 0.062760636 0.0137137985 0.14197396 0.07220085 0.005425589 0.09781807
-0.12773561 -0.0709635 0.11210392 0.009117499 0.035452135 0.059380822 0.0048444048 0.09187599
00000000: b72a 013e 3a92 2c3d 9076 233e 8be4 aa3c
00000010: 6787 023d 6a40 1b3e 5a0c 95bd 73af 0f3e
00000020: a74f 043e ad44 6c3d ca96 623c ce68 523d
00000030: 08d9 39bc 4c81 513d c6ae f9bc 93f6 db3d
00000040: f312 ffbd 7931 6b3d 135f fd3d f493 153b
00000050: feb1 c8bd 8cfb d5bd 5504 64bd 8296 f23c
00000060: 2cab 673c 0a67 9a3d e93d 7fbd 62bf c9bd
00000070: f9c1 a6bc e08a ccbc 6af0 383e 640d a0bc
00000080: 8953 e3bd c6d3 2c3e f1bb eb3d a477 273d
00000090: a343 063e bca6 0abd b3c4 333d f4a4 6cbd
000000a0: 600d 70bd 26bc 3b3e f2e7 403d cd68 03be
000000b0: e18c a0bd 2dcc d33d 05aa fd3c b186 9bbd
000000c0: 146c 843c e50c 933b 5cc7 453d 9812 84bd
000000d0: 6fdd 08bd 34e9 b83d 1edd 3b3d 7424 6abd
000000e0: a653 e23c 9227 b43d 5ed8 373d ee77 ec3d
000000f0: 10c6 153e 66c0 013c 6902 b0bb 53aa cbbd
00000100: d995 40bd 766a c9bd c6a4 d9bd 040d b93d
00000110: 4556 88bc 2d45 dbbb 947f 33bd 409a 04bc
00000120: 5379 7fbd 89be 85bd 6b6e 3abc f311 8d3d
00000130: ff6e ccbd 1984 85bd 5976 d1bb adbb 27bd
00000140: f210 a53d feff b8bd 0f82 933d 64dc fc3d
00000150: 83c9 f2bc 9572 e0bd 7a6f 91bd eb98 293d
00000160: 140d 443b 0e9b e1bd 8c60 90bc 788c acbd
00000170: b41c ff3d 480d 133d 1d50 a13d 707d 95bc
00000180: 931b 833d 95e3 b13d 3cee e3bc 619f 12bc
00000190: e967 7bbc 4c07 a03d 2d32 4e3d 395f 923c
000001a0: 60d5 f63b 7156 2f3d 4173 3bbd ad16 a73d
000001b0: 1cff 85bd 8b1c c53c 2be3 ba3d 8f6c 9ebc
000001c0: f649 17bd 4544 323d d787 05be daee 82bd
000001d0: 916f b13d a1be 393d ec45 33bd 8b16 b63d
000001e0: fbf9 cbbd d636 dfbd 4791 04be 9636 d73d
000001f0: f256 e93c 9aa3 85b8 890f c4bd 0363 c83d
00000200: ab1b f9bd dea1 c93b b951 0bbe 99a7 2ebd
00000210: 972a 8c3d b210 a3bd 7543 0b3e 34fa df3d
00000220: d347 93bd 0d34 f83d 7267 06be 73f3 a9bd
00000230: 2b7b aa3c 3346 cc3d 8634 213d 2618 003d
00000240: 48bc d0bd c4b1 f1bd 2500 063e 582d c6bb
00000250: 5c6a b7bb e2e0 d03d 7955 b3bd 28f9 153e
00000260: ca85 c8bd f286 4abd 9756 1e3e b8af fbbc
00000270: ac02 453e f26a 4dbd afc9 e2bb 1c70 073e
00000280: 346b 983d 522e 683d 92c5 9a3d 1f7a 5d3d
00000290: 9c48 ca3d 7b49 043d 6317 9b3d 9713 f03d
000002a0: 4cc2 cc3d a05e 4b3e a479 863d c1ca c03c
000002b0: 9f69 963d 15b8 27be 56f5 473c 5951 483e
000002c0: da0f a03d d277 a73d 391b a53d ddbc 8abd
000002d0: e870 013e 4c9a 3b3e ec45 d6b9 a6fb 9dbd
000002e0: ae63 79bb 42b0 c2bc a688 803d d7af 603c
000002f0: 9f61 113e 0ade 933d 24c9 b13b d754 c83d
00000300: 20cd 02be 5055 91bd bd96 e53d 9061 153c
00000310: 4236 113d 4e39 733d d0bd 9e3b 7b29 bc3d

lstm.weight_ih_l1 f4 [200, 50]
0.02200645 0.044131964 -0.033344153 0.10845093 0.113721974 0.02936941 -0.08188386 0.097383626
0.063685246 0.008472315 -0.07321514 -0.08324516 -0.07222052 0.013047776 -0.044540737 0.15032336
0.092237525 0.09005748 -0.058203828 -0.073338404 -0.022349227 0.0073079453 0.06842023 -0.024698813
-0.021717511 -0.16169426 0.09769609 0.021439262 -0.050073557 -0.060140476 0.028861525 0.032524783
-0.10272153 -0.101338685 0.031681456 0.041786674 0.018672002 0.0538444 0.11079022 0.05938017
-0.014850537 0.037688546 0.066703744 0.04215901 -0.09084376 0.043413635 0.115256555 -0.12983805
0.16895524 -0.10679788 0.37745875 -0.15801404 -0.08733067 0.17684506 0.29500186 -0.20952646
0.17955233 0.042418376 0.19079699 -0.04419859 0.10576934 -0.1673524 0.040852007 0.050157335
-0.29701152 0.27515697 0.05310197 -0.2732807 -0.07740245 -0.3755338 0.19871575 0.24261235
-0.18218914 -0.070116125 0.19440731 -0.2573436 0.038257245 0.13712421 0.24545264 0.12263744
-0.07856679 -0.20794113 0.17069748 -0.21484423 0.21356529 -0.15531388 0.32668024 0.20407689
-0.06748709 -0.25575837 0.28702328 0.32720652 -0.042201046 0.047275852 -0.11962339 -0.091185965
0.18071583 0.08655479 0.24044426 -0.10760828 0.11997983 -0.11376016 -0.027109848 0.1138015
0.11116979 -0.16478075 -0.007278708 -0.09793858 0.011381411 0.06547691 0.02198295 0.022582257
0.066282354 0.14814408 -0.14219365 0.044082876 0.14333194 -0.026408508 -0.07846706 -0.12912259
-0.033230312 0.0416912 -0.06242407 -0.13791652 -0.065931335 0.034925144 -0.038317505 0.034747746
0.12658857 0.020854905 0.006898156 -0.02904301 0.07331768 -0.1543841 0.09455597 -0.051376738
0.10799563 0.11633813 -0.093755215 -0.091912016 0.011140492 0.06200708 -0.05631131 -0.105084404
0.04375424 0.13089868 0.027729725 -0.08463248 0.028763218 -0.0005080525 0.033062525 -0.14213718
0.06058587 0.1165976 -0.054222673 -0.13280454 -0.007280727 0.14640531 0.09021482 -0.029977454
-0.10288265 -0.11806208 -0.082102366 0.16721527 0.07112197 0.10371057 0.010621415 -0.017997792
0.06749391 -0.15241037 0.093250096 -0.03405065 -0.15781565 -0.013598192 0.13798839 -0.019446867
-0.09289844 0.1454887 -0.009447644 -0.0765911 -0.047126632 -0.12908696 -0.030913604 0.087439284
-0.048548814 -0.078770205 0.16220874 0.029342903 -0.16988744 -0.13077031 -0.06645169 -0.08623142
0.07606646 0.058303088 0.06298444 -0.02152631 0.11035324 0.036920566 -0.08341586 -0.053419113
-0.08551147 -0.11905416 -0.026934817 0.15481128 0.052298885 0.09278742 0.12234344 0.12903024
-0.0034112195 0.044346843 -0.0464926 -0.12281931 -0.015007784 -0.030904708 0.041615482 -0.043837387
0.0066678165 -0.07342671 0.0016934868 -0.14296404 -0.100482725 0.09284698 -0.013799324 -0.021388885
0.03299601 0.03369431 0.06446136 -0.0044926535 0.026751494 -0.025160432 -0.02384672 -0.11755745
0.12669197 -0.15428409 -0.054142367 -0.1676489 0.043503944 0.04742455 0.04851719 -0.0358652
-0.077811226 -0.077700615 0.042620465 -0.107137546 0.018643435 -0.028440304 -0.10433217 -0.01670183
-0.0054582353 -0.14933012 0.124756664 -0.06735767 -0.034178153 0.13268578 0.16741155 0.02079818
00000000: df46 b43c b8c3 343d e193 08bd 851b de3d
00000010: 11e7 e83d 1e98 f03c bab2 a7bd 1171 c73d
00000020: 696d 823d 77cf 0a3c d2f1 95bd 707c aabd
00000030: 5ae8 93bd 57c6 553c 5970 36bd 5eee 193e
00000040: 07e7 bc3d 0e70 b83d 2367 6ebd 7232 96bd
00000050: ba15 b7bc 7d77 ef3b e81f 8c3d 2a55 cabc
00000060: ece8 b1bc 2e93 25be e314 c83d 64a1 af3c
00000070: ee19 4dbd dc55 76bd 016f ec3c b538 053d
00000080: aa5f d2bd a88a cfbd 6ac4 013d 8128 2b3d
00000090: 07f6 983c f28b 5c3d fce5 e23d 9f38 733d
000000a0: ab4f 73bc 4e5f 1a3d f99b 883d edae 2c3d
000000b0: 4b0c babd 7fd2 313d a10b ec3d 44f4 04be
000000c0: 9a02 2d3e d9b8 dabd 4642 c13e 6fce 21be
000000d0: 6cda b2bd df16 353e 7c0a 973e 1b8e 56be
000000e0: 91dc 373e e4be 2d3d 4960 433e 9509 35bd
000000f0: 999d d83d 6d5e 2bbe 6f54 273d c771 4d3d
00000100: e511 98be 60e1 8c3e 7481 593d 73eb 8bbe
00000110: 2d85 9ebd f745 c0be 247c 4b3e 5f6f 783e
00000120: ca8f 3abe 0b99 8fbd b612 473e 8ac2 83be
00000130: a1b3 1c3d 4a6a 0c3e f057 7b3e 5729 fb3d
00000140: a0e7 a0bd 85ee 54be 52cb 2e3e 2000 5cbe
00000150: dcb0 5a3e 9a0a 1fbe a242 a73e 88f9 503e
00000160: ac36 8abd c3f2 82be b7f4 923e 9d87 a73e
00000170: 01db 2cbd 53a4 413d 1cfd f4bd b5bf babd
00000180: 920d 393e a343 b13d 0537 763e bb61 dcbd
00000190: fcb7 f53d 16fb e8bd 7915 debc c310 e93d
000001a0: fdac e33d 49bc 28be 3a82 eebb 0694 c8bd
000001b0: 1979 3a3c c218 863d 9615 b43c 6dfe b83c
000001c0: 0bbf 873d 15b3 173e 369b 11be 3f90 343d
000001d0: 9cc5 123e a856 d8bc 57b3 a0bd b638 04be
000001e0: 821c 08bd 64c4 2a3d 62b0 7fbd fd39 0dbe
000001f0: 0207 87bd ab0d 0f3d d1f2 1cbd a753 0e3d
00000200: 6fa0 013e e8d7 aa3c ed09 e23b 9beb edbc
00000210: 9427 963d de16 1ebe 8fa6 c13d 6a70 52bd
00000220: d02c dd3d af42 ee3d bc02 c0bd 5e3c bcbd
00000230: 9c86 363c 23fb 7d3d b0a6 66bd 7e36 d7bd
00000240: a537 333d 4e0a 063e 7329 e33c cb53 adbd
00000250: d7a0 eb3c d32e 05ba 926c 073d 698c 11be
00000260: e428 783d b9ca ee3d 9818 5ebd eafd 07be
00000270: 2a93 eebb 46eb 153e 8cc2 b83d 4793 f5bc
00000280: 24b4 d2bd 88ca f1bd 4925 a8bd 7b3a 2b3e
00000290: 65a8 913d 3566 d43d 7205 2e3c 1b70 93bc
000002a0: 3f3a 8a3d 7711 1cbe e8f9 be3d b278 0bbd
000002b0: 6d9a 21be f3ca 5ebc d44c 0d3e 094f 9fbc
000002c0: 8a41 bebd fdfa 143e 4bca 1abc cbdb 9cbd
000002d0: db07 41bd 5f2f 04be 873e fdbc 5e13 b33d
000002e0: 1fdb 46bd 4652 a1bd 0c1a 263e 8760 f03c
000002f0: f9f6 2dbe a7e8 05be d317 88bd 199a b0bd
00000300: bbc8 9b3d 38cf 6e3d fcfd 803d f257 b0bc
00000310: e100 e23d 053a 173d efd5 aabd 00ce 5abd
00000320: a320 afbd abd2 f3bd 68a6 dcbc d986 1e3e
00000330: 5b37 563d 5507 be3d 338f fa3d 8120 043e
00000340: c48e 5fbb 09a5 353d 066f 3ebd b188 fbbd
00000350: 35e3 75bc df2b fdbc ff74 2a3d d58e 33bd
00000360: b37d da3b be60 96bd fdf7 dd3a 2a65 12be
00000370: e3c9 cdbd 8f26 be3d 8f16 62bc be37 afbc
00000380: d326 073d 0b03 0a3d 5104 843d 1c37 93bb
00000390: f325 db3c 401d cebc 325a c3bc f6c1 f0bd
000003a0: 8abb 013e a6fc 1dbe 63c4 5dbd 27ac 2bbe
000003b0: 3131 323d 3f40 423d f6b9 463d 63e7 12bd
000003c0: 7e5b 9fbd 8021 9fbd cc92 2e3d ee6a dbbd
000003d0: 1eba 983c a4fb e8bc 1bac d5bd 47d2 88bc
000003e0: ffda b2bb ffe9 18be 6c80 ff3d d1f2 89bd
000003f0: 64fe 0bbd c8de 073e ef6d 2b3e f260 aa3c

lstm.weight_hh_l1 f4 [200, 50]
0.12572454 0.027449293 0.081410065 0.105245896 0.07188976 -0.05935483 -0.109817475 0.09763312
0.0064764176 0.09243341 -0.13021341 0.040548798 -0.07000962 0.10699474 -0.10877253 0.031002028
0.07500117 0.04813634 -0.009659479 0.13863026 -0.059717294 0.12616248 -0.1060614 -0.11600105
0.044084527 0.046172265 0.020706194 0.07857778 0.10823777 0.078878134 0.117696136 -0.09054587
0.073073894 -0.13296194 0.09641826 -0.03388034 -0.05121289 0.07556463 -0.12682799 0.023029197
-0.019894086 0.10417249 0.011651922 -0.12814516 -0.06686656 0.015321926 0.08463805 0.0061769066
0.03108951 -0.11198801 -0.039665695 0.14198162 -0.1359848 -0.04701918 0.053961348 -0.19307345
0.071115844 0.15019284 0.019107686 -0.08757589 0.06644394 -0.15066011 -0.021391256 0.20928176
0.10637789 0.29539403 0.18422024 0.29350123 -0.21052472 0.12120208 0.26227683 -0.011278461
0.090031005 -0.05728514 0.08768206 0.24343641 0.06903797 -0.12724568 -0.11760865 -0.010939095
-0.11330588 0.082652844 0.11261701 0.07335477 0.032783017 -0.060127128 -0.09112185 -0.28926483
-0.14769037 0.13625999 0.17706239 0.061255295 0.19024783 -0.26200405 0.25361684 -0.23935601
0.004297334 0.37911302 0.22783718 -0.16670361 0.14124708 -0.16736637 0.05538091 0.110056445
-0.0541068 0.1245139 -0.057825506 0.05104368 0.12419777 -0.06719457 -0.12799461 0.12453941
0.053107854 0.12201969 0.11496592 0.124451354 -0.06417429 0.0773239 -0.01056443 -0.019752983
0.06393087 0.041290283 0.08293328 -0.065432884 -0.0255666 0.0367741 0.022798557 -0.027135732
0.01683261 -0.076015905 -0.054610014 -0.13413426 0.09599524 -0.08956979 0.08363886 -0.019599017
-0.06826466 -0.13861868 0.0068342513 -0.023065655 0.13163912 0.0898689 0.01075691 -0.03304538
0.023626702 0.07355398 -0.092896916 -0.15302168 -0.08963977 -0.05849995 -0.0037329984 0.09482702
0.10971226 -0.072651595 0.012790887 0.11556391 0.07205929 -0.11516847 -0.06422788 -0.05047033
0.15126283 0.0753342 0.05947283 0.0430306 0.055498898 0.04702577 0.04334705 0.020295683
-0.11103593 -0.048637386 0.09066643 0.089959405 0.13757502 0.04819826 0.10683428 -0.12877151
0.070834704 -0.16079825 0.020229883 -0.111156315 -0.009001491 -0.084140375 -0.05752741 0.13912341
-0.018813763 0.04602295 -0.12277758 -0.027909085 0.0018429764 0.07218507 0.010588006 0.03402907
-0.12651943 0.058034804 0.0050086444 -0.0649021 -0.072717346 -0.12724835 0.063252956 0.081414394
-0.016842483 0.18372917 0.010605148 -0.06771029 0.07808149 -0.16003734 0.042330425 0.15711223
0.088128366 -0.10030932 -0.011913483 -0.004470012 0.010492332 0.13732319 0.1076701 0.22369249
0.10763034 -0.050226916 -0.19552645 0.10288055 0.1774136 0.057649434 -0.0084133 -0.03563504
0.16447893 0.10012376 -0.035728887 -0.09928358 -0.054336116 -0.07266037 -0.020524876 -0.08232587
0.14575455 -0.06824544 0.07908826 0.0391934 -0.09974191 -0.15622252 -0.12181494 0.23296864
0.16163439 0.01147793 0.05604384 -0.16000852 -0.089216895 0.062620066 -0.004199811 0.13023874
0.09750603 -0.10245248 0.08467263 -0.03254492 -0.102665536 -0.02286283 0.032371253 -0.11615943
00000000: efbd 003e 57dd e03c 52ba a63d 298b d73d
00000010: f03a 933d 0d1e 73bd fce7 e0bd e0f3 c73d
00000020: 2138 d43b ba4d bd3d aa56 05be 7f16 263d
00000030: 3461 8fbd 0f20 db3d 22c4 debd f7f7 fd3c
00000040: 379a 993d 9c2a 453d cb42 1ebc 17f5 0d3e
00000050: 1f9a 74bd bd30 013e b836 d9bd f591 edbd
00000060: fa91 343d 211f 3d3d 09a0 a93c 63ed a03d
00000070: c4ab dd3d dc8a a13d ac0a f13d 1d70 b9bd
00000080: c4a7 953d 2d27 08be f076 c53d 1dc6 0abd
00000090: 9bc4 51bd a1c1 9a3d 32df 01be baa7 bc3c
000000a0: ecf8 a2bc 6358 d53d b4e7 3e3c 7c38 03be
000000b0: 56f1 88bd d108 7b3c b756 ad3d a667 ca3b
000000c0: 6eaf fe3c f859 e5bd 7f78 22bd a163 113e
000000d0: 993f 0bbe 2f97 40bd 9306 5d3d 0cb5 45be
000000e0: 2fa5 913d 27cc 193e b987 9c3c fd5a b3bd
000000f0: c313 883d a546 1abe b73c afbc f54d 563e
00000100: a7dc d93d e33d 973e 3ba4 3c3e cb45 963e
00000110: cb93 57be cc38 f83d 2649 863e 4bc9 38bc
00000120: 2d62 b83d d3a3 6abd a792 b33d 6547 793e
00000130: c763 8d3d b14c 02be cedc f0bd e439 33bc
00000140: ea0c e8bd e545 a93d bfa3 e63d 073b 963d
00000150: 7c47 063d dd47 76bd 189e babd 851a 94be
00000160: 253c 17be bd87 0b3e d84f 353e d5e6 7a3d
00000170: 54d0 423e 6525 86be 11da 813e be19 75be
00000180: a6d0 8c3b 1a1b c23e 264e 693e 5ab4 2abe
00000190: 13a3 103e 1762 2bbe 18d7 623d 4665 e13d
000001a0: 189f 5dbd 2501 ff3d 70da 6cbd 2e13 513d
000001b0: 675b fe3d 4f9d 89bd 0511 03be 850e ff3d
000001c0: 9f87 593d 76e5 f93d 4173 eb3d 5ae0 fe3d
000001d0: cf6d 83bd fe5b 9e3d 6e16 2dbc 02d1 a1bc
000001e0: 30ee 823d 0020 293d ecd8 a93d ad01 86bd
000001f0: 0c71 d1bc 70a0 163d 0ac4 ba3c c14b debc
00000200: 8be4 893c 3aae 9bbd c0ae 5fbd 7e5a 09be
00000210: 2799 c43d 5e70 b7bd da4a ab3d 1e8e a0bc
00000220: 58ce 8bbd 0ef2 0dbe dbf1 df3b 2ff4 bcbc
00000230: 68cc 063e 300d b83d c03d 303c 985a 07bd
00000240: c98c c13c 78a3 963d bd40 bebd b7b1 1cbe
00000250: 0e95 b7bd a59d 6fbd 52a5 74bb ab34 c23d
00000260: d2b0 e03d 5cca 94bd de90 513c c5ac ec3d
00000270: d293 933d 72dd ebbd e889 83bd fab9 4ebd
00000280: a5e4 1a3e d148 9a3d c899 733d db40 303d
00000290: d052 633d 189e 403d ad8c 313d 2243 a63c
000002a0: ce66 e3bd ff37 47bd 52af b93d a33c b83d
000002b0: 77e0 0c3e 8a6b 453d eecb da3d aedc 03be
000002c0: c911 913d 4ca8 24be 24b9 a53c eca5 e3bd
000002d0: fd7a 13bc ca51 acbd dda1 6bbd 5e76 0e3e
000002e0: 521f 9abc 9082 3c3d d072 fbbd 98a1 e4bc
000002f0: 0790 f13a c4d5 933d 5179 2d3c 1162 0b3d
00000300: 4f8e 01be e7b5 6d3d 8e1f a43b 64eb 84bd
00000310: d5ec 94bd 644d 02be c48a 813d 97bc a63d
00000320: 3ff9 89bc 8023 3c3e 37c1 2d3c b1ab 8abd
00000330: 30e9 9f3d d4e0 23be ab62 2d3d 07e2 203e
00000340: a57c b43d f96e cdbd c530 43bc 2e79 92bb
00000350: 08e8 2b3c 739e 0c3e 2482 dc3d a50f 653e
00000360: 4c6d dc3d bdba 4dbd 1638 48be 0ab3 d23d
00000370: e9ab 353e d021 6c3d f0d7 09bc 0cf6 11bd
00000380: 2a6d 283e b00d cd3d 7458 12bd 3155 cbbd
00000390: 8c8f 5ebd f6ce 94bd c923 a8bc 779a a8bd
000003a0: ae40 153e 44c4 8bbd 07f9 a13d 4289 203d
000003b0: 7d45 ccbd ccf8 1fbe 1c7a f9bd 558f 6e3e
000003c0: 7c83 253e ed0d 3c3c 3a8e 653d 46d9 23be
000003d0: 59b7 b6bd f33e 803d 919e 89bb 4e5d 053e
000003e0: 3eb1 c73d 9bd2 d1bd d868 ad3d d24d 05bd
000003f0: 4f42 d2bd d44a bbbc b897 043d ffe4 edbd

lstm.bias_ih_l1 f4 [200]
-0.050957136 0.05714959 -0.07490181 0.14945126 0.07087722 0.062910736 -0.05920403 0.0019292189
0.14614342 0.12240378 0.07614169 0.11152513 0.016501037 0.021026744 0.07754988 0.028507372
0.14470513 0.028427096 -0.08141366 -0.114851594 -0.05660601 -0.057953857 0.04226342 0.04310743
0.05064016 0.045545027 0.11216492 -0.050824095 0.038377006 0.045797817 -0.08246151 -0.025243297
0.16503468 -0.0987731 -0.058311693 -0.10765115 0.13613243 0.10642985 0.10080663 -0.04271265
0.13660893 -0.07035431 0.06116912 -0.11566396 -0.08053261 -0.002620955 0.06574253 0.13169758
0.19649702 0.054924276 -0.111921005 -0.023859093 0.068104595 -0.04774999 0.13090599 -0.019442864
0.0054036216 -0.032832626 -0.10814666 0.09605152 -0.022965724 0.016593374 -0.10465653 -0.05212715
0.04276733 -0.13331328 0.12957264 -0.05279723 -0.12454323 -0.0050055976 -0.12670907 -0.012542604
-0.04433175 -0.15924925 -0.036626436 -0.0031520405 -0.13460976 -0.10446534 -0.06080939 -0.08766151
0.006650532 -0.060094636 -0.032601953 0.039123125 0.09478707 -0.00097341026 0.08895098 -0.10261887
-0.071727514 0.022981538 -0.068249166 -0.08472704 0.01839851 0.031785224 0.013047454 0.09336502
-0.0032877568 0.1258642 -0.11441279 -0.14031073 -0.11894415 -0.077666804 -0.073940516 0.026897648
-0.0041309404 -0.011228216 -0.06213511 0.057222664 -0.11702558 0.014801983 0.12524499 -0.04635558
0.045650303 -0.05768782 0.042713508 0.13543996 0.08535938 -0.020219611 0.028491722 -0.10100042
-0.057266913 -0.09934941 0.09713417 -0.054544315 0.016858334 -0.1028067 -0.097432785 -0.08638304
0.05415406 0.0846665 -0.04792391 -0.10111432 -0.053954262 -0.024273705 0.07978009 0.07788279
0.05811023 -0.009874821 0.06727698 0.054163482 0.12663315 -0.12015037 -0.08034759 0.03317827
0.12704222 -0.08748355 0.07894819 0.017807877 0.03740336 -0.12271369 -0.110818334 -0.0971185
-0.081563875 -0.0014571627 -0.00836967 -0.06913397 -0.08523682 0.040508304 -0.107579425 -0.043358434
0.08445904 0.090519555 -0.068166114 -0.059943147 -0.04153637 0.12465981 0.120351076 0.09839158
0.17328854 -0.050360408 0.12841816 -0.09313323 -0.065104425 -0.11792281 -0.03043117 -0.054587606
0.12097328 0.05754151 0.058849107 -0.052860957 0.12846276 -0.11617868 -0.08779934 0.090014145
0.030252624 -0.08927174 0.11350021 0.08797215 0.06958113 0.0031281267 0.019965544 -0.13105749
-0.07477099 -0.042959932 0.055409994 -0.09498078 0.046510227 0.052625597 0.17068286 0.0023898366
00000000: 6eb8 50bd b015 6a3d 1f66 99bd c009 193e
00000010: 1328 913d 58d7 803d ed7f 72bd d8dd fc3a
00000020: 9fa6 153e d5ae fa3d 2df0 9b3d 4a67 e43d
00000030: 2f2d 873c 4740 ac3c 79d2 9e3d 4b88 e93c
00000040: 952d 143e f1df e83c 34bc a6bd 5037 ebbd
00000050: b4db 67bd 0661 6dbd 681c 2d3d 6b91 303d
00000060: 0e6c 4f3d 6c8d 3a3d b9b6 e53d ed2c 50bd
00000070: 3531 1d3d 7e96 3b3d 95e1 a8bd 08cb cebc
00000080: dafe 283e 8d49 cabd 3ed8 6ebd 3578 dcbd
00000090: 4d66 0b3e e5f7 d93d b573 ce3d 76f3 2ebd
000000a0: 36e3 0b3e ec15 90bd 798c 7a3d 3ae1 ecbd
000000b0: 48ee a4bd 54c4 2bbb 05a4 863d bbdb 063e
000000c0: 8436 493e 47f8 603d d736 e5bd 2574 c3bc
000000d0: 6c7a 8b3d 7e95 43bd 380c 063e a446 9fbc
000000e0: dd10 b13b 817b 06bd ff7b ddbd a9b6 c43d
000000f0: 9d22 bcbc d4ee 873c 2a56 d6bd 4783 55bd
00000100: cc2c 2f3d 4783 08be b1ae 043e e941 58bd
00000110: 8510 ffbd ff05 a4bb 06c0 01be 7e7f 4dbc
00000120: 3695 35bd 3c12 23be 9a05 16bd 7792 4ebb
00000130: 24d7 09be edf1 d5bd 4413 79bd e187 b3bd
00000140: b5ec d93b cb25 76bd a089 05bd 923f 203d
00000150: b91f c23d 752c 7fba ee2b b63d d829 d2bd
00000160: e0e5 92bd c743 bc3c 38c6 8bbd 5f85 adbd
00000170: 79b8 963c 3931 023d fdc4 553c 2936 bf3d
00000180: 6877 57bb 8be2 003e 4151 eabd 9ead 0fbe
00000190: fe98 f3bd c60f 9fbd 206e 97bd 7558 dc3c
000001a0: d75c 87bb 8df6 37bc 6381 7ebd 5062 6a3d
000001b0: 1bab efbd 0484 723c 3940 003e 59df 3dbd
000001c0: d0fb 3a3d 104a 6cbd 5cf4 2e3d c6b0 0a3e
000001d0: e6d0 ae3d 99a3 a5bc 7967 e93c 4fd9 cebd
000001e0: b690 6abd b477 cbbd 48ee c63d dc69 5fbd
000001f0: 7d1a 8a3c 528c d2bd d78a c7bd 97e9 b0bd
00000200: a6d0 5d3d a165 ad3d dd4b 44bd 0615 cfbd
00000210: 25ff 5cbd a6d9 c6bc be63 a33d 0381 9f3d
00000220: fe04 6e3d 00ca 21bc 83c8 893d 87da 5d3d
00000230: 1fac 013e 6611 f6bd 478d a4bd f0e5 073d
00000240: 5b17 023e 932a b3bd 97af a13d d3e1 913c
00000250: 4434 193d 5151 fbbd b9f4 e2bd 10e6 c6bd
00000260: f60a a7bd 44fe beba f120 09bc 1c96 8dbd
00000270: a490 aebd 09ec 253d 9a52 dcbd 9d98 31bd
00000280: dcf8 ac3d 5162 b93d ad9a 8bbd f286 75bd
00000290: 0a22 2abd a44d ff3d a07a f63d 8681 c93d
000002a0: 8d72 313e b746 4ebd 0d80 033e a3bc bebd
000002b0: 7855 85bd 8481 f1bd ca4a f9bc 4197 5fbd
000002c0: d7c0 f73d a5b0 6b3d c30b 713d bb84 58bd
000002d0: be8b 033e 16ef edbd 24d0 b3bd 5659 b83d
000002e0: 5ad4 f73c 1ad4 b6bd cc72 e83d be2a b43d
000002f0: 8d80 8e3d 4201 4d3b c88e a33c ef33 06be
00000300: 8821 99bd c1f6 2fbd 97f5 623d 4885 c2bd
00000310: 8281 3e3d f08d 573d 7dc7 2e3e ce9e 1c3b

lstm.bias_hh_l1 f4 [200]
0.121661864 -0.04779923 0.12609838 -0.084427685 0.11029886 0.14551185 -0.113697805 0.17125447
-0.059124433 0.043153282 0.060805675 0.038431685 0.058368087 -0.00078471424 -0.0969386 -0.05916546
-0.019363636 0.098973036 0.14418912 -0.13327503 0.1634688 -0.07240839 -0.12685844 -0.11293078
0.09121988 0.15397544 -0.06423343 0.052947994 0.08657736 -0.09696984 -0.08779798 0.062097196
-0.095729485 0.01889907 0.0075540254 -0.06096347 0.093157604 0.08529026 -0.10959575 0.119039945
-0.07867044 -0.0988342 0.11671157 0.16304564 -0.06920886 -0.08265187 -0.12313198 0.060858045
0.015089927 -0.12346745 0.011981407 -0.16820054 -0.0891303 0.11734881 -0.12389484 0.115101434
0.022904256 -0.079524614 0.13675815 0.036667444 0.047266047 -0.11020641 0.06315401 0.10186835
-0.039057434 0.08957782 -0.06742552 0.044545237 0.052827764 0.05082252 0.054436192 0.043517623
-0.15085521 -0.088574015 0.053950615 0.11619831 0.10637371 0.076664604 -0.02727697 0.042258613
-0.0419894 -0.12252483 0.04662279 -0.01062063 0.10314927 -0.035451766 0.025609583 0.12127243
-0.0033146944 0.0519344 0.13865928 0.018202059 -0.12813821 0.05445129 0.018784067 0.08380156
-0.08133643 0.06742864 -0.042831674 -0.0922241 0.023588562 0.12363416 -0.14538927 -0.016990056
0.071488045 -0.13137618 -0.032239825 -0.062107503 0.122805335 -0.012150258 -0.035079192 -0.11192153
0.08678126 0.06347885 -0.032018635 -0.10192083 -0.14611295 0.10712811 0.10185856 -0.05016906
0.043176062 -0.010143149 0.03307181 -0.012455405 -0.047302168 -0.005997176 -0.02095717 -0.13179216
-0.009786396 0.11651808 -0.078132205 0.049485426 0.012590509 0.14211415 -0.14213397 0.018355535
-0.0050905724 0.033447478 0.0078238705 -0.12543453 0.081971206 0.08316267 0.045443505 -0.13188632
-0.12663946 -0.044024754 0.079662435 -0.013702896 -0.018474286 0.08343657 -0.04705346 -0.10851623
-0.08842738 -0.024598917 0.11020973 -0.109041706 0.026487345 0.20652682 0.007977096 0.027214251
0.05200831 0.08765937 -0.061608016 -0.10019798 -0.008435992 0.13140284 0.091255024 -0.020991966
0.09704805 -0.11287625 -0.08538369 0.065273665 0.111931905 0.025648545 0.013751288 0.038620703
0.1258123 0.080804504 -0.00909037 0.13243684 0.057693116 -0.11028053 0.017703379 0.1167686
0.15387441 0.05925249 0.08351643 0.20608938 -0.02432411 0.15898687 -0.11583139 0.07466329
0.081612036 0.03864594 -0.0063616806 0.0007551183 -0.110429 -0.091146104 0.10753603 -0.13264234
00000000: db29 f93d 20c9 43bd ef1f 013e 6ce8 acbd
00000010: 5ee4 e13d 0f01 153e 65da e8bd 555d 2f3e
00000020: 762c 72bd 7fc1 303d 5f0f 793d 8b6a 1d3d
00000030: 6013 6f3d 48b5 4dba bf87 c6bd 7b57 72bd
00000040: 7da0 9ebc 60b2 ca3d 50a6 133e 4079 08be
00000050: 5d64 273e da4a 94bd 2ee7 01be 4148 e7bd
00000060: 7dd1 ba3d bdab 1d3e d18c 83bd ffdf 583d
00000070: 794f b13d 2098 c6bd 6dcf b3bd a159 7e3d
00000080: d20d c4bd 39d2 9a3c c287 f73b d5b4 79bd
00000090: 6ac9 be3d a9ac ae3d bd73 e0bd 37cb f33d
000000a0: f81d a1bd 9669 cabd 7a06 ef3d 70f5 263e
000000b0: 60bd 8dbd 6245 a9bd 9f2c fcbd 4946 793d
000000c0: be3b 773c 81dc fcbd aa4d 443c c33c 2cbe
000000d0: f289 b6bd 9354 f03d 94bc fdbd 4dba eb3d
000000e0: b5a1 bb3c cddd a2bd 540a 0c3e 9a30 163d
000000f0: 0b9a 413d e6b3 e1bd e456 813d 5aa0 d03d
00000100: b0fa 1fbd 9374 b73d 6416 8abd 1175 363d
00000110: ed61 583d 462b 503d 7cf8 5e3d 893f 323d
00000120: ca79 1abe 4b66 b5bd 52fb 5c3d 61f9 ed3d
00000130: 76da d93d 5502 9d3d f473 dfbc 5e17 2d3d
00000140: 14fd 2bbd 4cee fabd 8af7 3e3d 2702 2ebc
00000150: ed3f d33d df35 11bd 30cb d13c ae5d f83d
00000160: 583b 59bb 2ab9 543d b3fc 0d3e 7c1c 953c
00000170: aa36 03be 5108 5f3d 0be1 993c 27a0 ab3d
00000180: b793 a6bd 0718 8a3d 4470 2fbd fddf bcbd
00000190: cd3c c13c e833 fd3d ede0 14be bb2e 8bbc
000001a0: 5368 923d 7a87 06be e80d 04bd 7064 7ebd
000001b0: 5d81 fb3d e011 47bc 33af 0fbd 1d37 e5bd
000001c0: 60ba b13d 3301 823d f925 03bd debb d0bd
000001d0: a29e 15be fc65 db3d 399b d03d 127e 4dbd
000001e0: 62d9 303d 732f 26bc 4e76 073d c111 4cbc
000001f0: ebbf 41bd f583 c4bb 5fae abbc 86f4 06be
00000200: 1f57 20bc 08a1 ee3d c703 a0bd 3bb1 4a3d
00000210: 6c48 4e3c 5f86 113e 918b 11be 595e 963c
00000220: d1ce a6bb 3900 093d b12f 003c e971 00be
00000230: 85e0 a73d 3151 aa3d f822 3a3d 350d 07be
00000240: c6ad 01be 4d53 34bd 0f26 a33d 1d82 60bc
00000250: 6357 97bc cbe0 aa3d 21bb 40bd c23d debd
00000260: 6a19 b5bd ab83 c9bc a4b5 e13d 4251 dfbd
00000270: fdfb d83c c47b 533e 5eb2 023c 6cf0 de3c
00000280: aa06 553d c186 b33d b058 7cbd 9934 cdbd
00000290: 1d37 0abc 778e 063e eae3 ba3d 58f7 abbc
000002a0: 21c1 c63d aa2b e7bd a5dd aebd 33ae 853d
000002b0: 8e3c e53d e61c d23c 154d 613c be30 1e3d
000002c0: f1d4 003e d57c a53d c6ef 14bc 869d 073e
000002d0: 9e4f 6c3d c2da e1bd ad06 913c 6024 ef3d
000002e0: 4191 1d3e bdb2 723d a90a ab3d 1809 533e
000002f0: 5b43 c7bc 74cd 223e 0239 edbd 11e9 983d
00000300: 3624 a73d 354b 1e3d a575 d0bb 22f3 453a
00000310: 9928 e2bd cfaa babd da3b dc3d 65d3 07be

fc.weight f4 [1, 50]
-0.03172618 0.0961314 -0.15073209 -0.1132889 -0.004232258 -0.046875805 0.008132615 0.1245091
0.14699225 0.027724702 0.15680182 -0.04860188 0.16052881 0.15554643 0.12442477 0.13969107
0.053509165 0.17098024 -0.16817166 0.019430753 0.15550196 0.066640295 -0.0029461568 0.021266462
0.05218715 0.11541588 -0.0607549 -0.117329665 -0.14673267 0.058123946 -0.098515086 -0.0063844067
0.08624199 0.067107946 -0.046283238 0.061914895 -0.1813678 -0.14186133 -0.11968564 0.07451268
0.096285686 -0.009265078 0.032553535 -0.17114438 0.0002910247 0.0052758786 -0.11681922 0.11121543
0.115681104 -0.12683846
00000000: 50f3 01bd 8ae0 c43d 8359 1abe 0304 e8bd
00000010: c1ae 8abb d800 40bd a93e 053c a1fe fe3d
00000020: 2385 163e ea1e e33c a890 203e c412 47bd
00000030: aa61 243e 9047 1f3e 6ad2 fe3d 2d0b 0f3e
00000040: 6d2c 5b3d 7215 2f3e 3135 2cbe 3e2d 9f3c
00000050: e83b 1f3e b57a 883d 4f14 41bb 0137 ae3c
00000060: 31c2 553d 295f ec3d 21da 78bd 894a f0bd
00000070: 1741 16be 6013 6e3d 47c2 c9bd 4934 d1bb
00000080: a49f b03d e46f 893d 7e93 3dbd 799a 7d3d
00000090: 7bb8 39be 1944 11be bf1d f5bd 1b9a 983d
000000a0: 6e31 c53d 8ecc 17bc db56 053d 7940 2fbe
000000b0: ad94 9839 47e1 ac3b ea3e efbd eac4 e33d
000000c0: 37ea ec3d f1e1 01be
